…
Trimming tweet vectors with vector length 12000
Trimming tweet vectors with vector length 12000
Trimming tweet vectors with vector length 12000
Adjustment complete. Performing model selection...
Train test split complete. Converting to np arrays and sending to network.
Data received from FileReader. Converting label data to categorical format...
Final prep complete, model initializing
_________________________________________________________________
Layer (type)                 Output Shape              Param #   
=================================================================
dense_1 (Dense)              (None, 1000)              12001000  
_________________________________________________________________
activation_1 (Activation)    (None, 1000)              0         
_________________________________________________________________
dense_2 (Dense)              (None, 5096)              5101096   
_________________________________________________________________
dropout_1 (Dropout)          (None, 5096)              0         
_________________________________________________________________
dense_3 (Dense)              (None, 5096)              25974312  
_________________________________________________________________
dense_4 (Dense)              (None, 5096)              25974312  
_________________________________________________________________
dense_5 (Dense)              (None, 5096)              25974312  
_________________________________________________________________
dense_6 (Dense)              (None, 2)                 10194     
_________________________________________________________________
activation_2 (Activation)    (None, 2)                 0         
=================================================================
Total params: 95,035,226
Trainable params: 95,035,226
Non-trainable params: 0
_________________________________________________________________
Compiling model...
Model compilation complete.
Train on 48206 samples, validate on 20086 samples
Epoch 1/100
2018-03-10 05:31:53.834892: I C:\tf_jenkins\workspace\rel-win\M\windows\PY\36\tensorflow\core\platform\cpu_feature_guard.cc:140] Your CPU supports instructions that this TensorFlow binary was not compiled to use: AVX2
…
